…
: 0.2546 - accuracy: 0.9020 - val_loss: 0.3136 - val_accuracy: 0.8916 Epoch 14/15 26/26 [==============================] - 11s 405ms/step - loss: 0.2288 - accuracy: 0.9105 - val_loss: 0.4436 - val_accuracy: 0.8768 Epoch 15/15 26/26 [==============================] - 10s 391ms/step - loss: 0.2065 - accuracy: 0.9240 - val_loss: 0.3032 - val_accuracy: 0.9261 . model.summary() . Model: &#34;sequential_3&#34; _________________________________________________________________ Layer (type) Output Shape Param # ================================================================= sequential_2 (Sequential) (None, 180, 180, 3) 0 rescaling_3 (Rescaling) (None, 180, 180, 3) 0 conv2d_6 (Conv2D) (None, 180, 180, 16) 448 max_pooling2d_6 (MaxPooling (None, 90, 90, 16) 0 2D) conv2d_7 (Conv2D) (None, 90, 90, 32) 4640 max_pooling2d_7 (MaxPooling (None, 45, 45, 32) 0 2D) conv2d_8 (Conv2D) (None, 45, 45, 64) 18496 max_pooling2d_8 (MaxPooling (None, 22, 22, 64) 0 2D) dropout_2 (Dropout) (None, 22, 22, 64) 0 flatten_2 (Flatten) (None, 30976) 0 dense_4 (Dense) (None, 128) 3965056 dense_5 (Dense) (None, 3) 387 ================================================================= Total params: 3,989,027 Trainable params: 3,989,027 Non-trainable params: 0 _________________________________________________________________ . visualization of training results by train dataset and validation dataset . acc = history.history[&#39;accuracy&#39;] val_acc = history.history[&#39;val_accuracy&#39;] loss = history.histor
…
